…
        in_features=[len(spherical_expansion[key].properties) for key in in_keys],
        out_features=1,  # for all blocks
    )
    print(in_keys)
    print(equi_linear)





.. rst-class:: sphx-glr-script-out

 .. code-block:: none

    Labels(
        o3_lambda  o3_sigma  center_type  neighbor_type
            0         1           6             6
            2         1           6             6
                             ...
            0         1           8             8
            2         1           8             8
    )
    EquivariantLinear(
      (module_map): ModuleMap(
        (0): Linear(in_features=5, out_features=1, bias=True)
        (1): Linear(in_features=5, out_features=1, bias=False)
        (2): Linear(in_features=5, out_features=1, bias=True)
        (3): Linear(in_features=5, out_features=1, bias=False)
        (4): Linear(in_features=5, out_features=1, bias=True)
        (5): Linear(in_features=5, out_features=1, bias=False)
        (6): Linear(in_features=5, out_features=1, bias=True)
        (7): Linear(in_features=5, out_features=1, bias=False)
      )
    )




.. GENERATED FROM PYTHON SOURCE LINES 154-159

We can see by printing the architecture of the ``EquivariantLinear`` module,
that there are 8 'Linear' layers, one for each block. In order to preserve
equivariance, bias is always turned off for all covariant blocks. For
invariant blocks, bias can be switched on or off by passing the boolean
…
            in_features=[hidden_layer_width for _ in in_keys],
            out_features=1,  # for all blocks
        ),
    )
    print(in_keys)
    print(equi_mlp)





.. rst-class:: sphx-glr-script-out

 .. code-block:: none

    Labels(
        o3_lambda  o3_sigma  center_type  neighbor_type
            0         1           6             6
            2         1           6             6
                             ...
            0         1           8             8
            2         1           8             8
    )
    Sequential(
      (module_map): ModuleMap(
        (0): Sequential(
          (0): Linear(in_features=5, out_features=64, bias=True)
          (1): ReLU()
          (2): Linear(in_features=64, out_features=1, bias=True)
        )
        (1): Sequential(
          (0): Linear(in_features=5, out_features=64, bias=False)
          (1): Identity()
          (2): Linear(in_features=64, out_features=1, bias=False)
        )
        (2): Sequential(
          (0): Linear(in_features=5, out_features=64, bias=True)
          (1): ReLU()
          (2): Linear(in_features=64, out_features=1, bias=True)
        )
        (3): Sequential(
          (0): Linear(in_features=5, out_features=64, bias=False)
          (1): Identity()
          (2): Linear(in_features=64, out_features=1, bias=False)
        )
        (4): Sequential(
          (0): Linear(in_features=5, out_features=64, bias=True)
          (1): ReLU()
          (2): Linear(in_features=64, out_features=1, bias=True)
        )
        (5): Sequential(
          (0): Linear(in_features=5, out_features=64, bias=False)
          (1): Identity()
          (2): Linear(in_features=64, out_features=1, bias=False)
        )
        (6): Sequential(
          (0): Linear(in_features=5, out_features=64, bias=True)
          (1): ReLU()
          (2): Linear(in_features=64, out_features=1, bias=True)
        )
        (7): Sequential(
          (0): Linear(in_features=5, out_features=64, bias=False)
          (1): Identity()
          (2): Linear(in_features=64, out_features=1, bias=False)
        )
      )
    )




.. GENERATED FROM PYTHON SOURCE LINES 322-325

Notice that for invariant blocks, the 'block model' is a nonlinear MLP whereas for
invariant blocks it is the sequential application of two linear layers, without bias.
Re-running the training loop with this new architecture:

.. GENERATED FROM PYTHON SOURCE LINES 326-330

.. code-block:: Python
…
